…
[38;5;204mVERSION[39m[38;5;15m:[39m[38;5;15m [39m[38;5;141m2[39m
[38;5;204mVIS_PERIOD[39m[38;5;15m:[39m[38;5;15m [39m[38;5;141m0[39m

[10/27 22:45:30] detectron2 INFO: Full config saved to ./output/config.yaml
[10/27 22:45:30] d2.utils.env INFO: Using a generated random seed 33226531
[10/27 22:45:31] d2.engine.defaults INFO: Model:
Dino(
  (model): DINO(
    (transformer): DeformableTransformer(
      (encoder): TransformerEncoder(
        (layers): ModuleList(
          (0-5): 6 x DeformableTransformerEncoderLayer(
            (self_attn): MSDeformAttn(
              (sampling_offsets): Linear(in_features=256, out_features=320, bias=True)
              (attention_weights): Linear(in_features=256, out_features=160, bias=True)
              (value_proj): Linear(in_features=256, out_features=256, bias=True)
              (output_proj): Linear(in_features=256, out_features=256, bias=True)
            )
            (dropout1): Dropout(p=0.0, inplace=False)
            (norm1): LayerNorm((256,), eps=1e-05, elementwise_affine=True)
            (linear1): Linear(in_features=256, out_features=2048, bias=True)
            (dropout2): Dropout(p=0.0, inplace=False)
            (linear2): Linear(in_features=2048, out_features=256, bias=True)
            (dropout3): Dropout(p=0.0, inplace=False)
            (norm2): LayerNorm((256,), eps=1e-05, elementwise_affine=True)
          )
        )
      )
      (decoder): TransformerDecoder(
        (layers): ModuleList(
          (0-5): 6 x DeformableTransformerDecoderLayer(
            (cross_attn): MSDeformAttn(
              (sampling_offsets): Linear(in_features=256, out_features=320, bias=True)
              (attention_weights): Linear(in_features=256, out_features=160, bias=True)
              (value_proj): Linear(in_features=256, out_features=256, bias=True)
              (output_proj): Linear(in_features=256, out_features=256, bias=True)
            )
            (dropout1): Dropout(p=0.0, inplace=False)
            (norm1): LayerNorm((256,), eps=1e-05, elementwise_affine=True)
            (self_attn): MultiheadAttention(
              (out_proj): NonDynamicallyQuantizableLinear(in_features=256, out_features=256, bias=True)
            )
            (dropout2): Dropout(p=0.0, inplace=False)
            (norm2): LayerNorm((256,), eps=1e-05, elementwise_affine=True)
            (linear1): Linear(in_features=256, out_features=2048, bias=True)
            (dropout3): Dropout(p=0.0, inplace=False)
            (linear2): Linear(in_features=2048, out_features=256, bias=True)
            (dropout4): Dropout(p=0.0, inplace=False)
            (norm3): LayerNorm((256,), eps=1e-05, elementwise_affine=True)
          )
        )
        (norm): LayerNorm((256,), eps=1e-05, elementwise_affine=True)
        (ref_point_head): MLP(
          (layers): ModuleList(
            (0): Linear(in_features=512, out_features=256, bias=True)
            (1): Linear(in_features=256, out_features=256, bias=True)
          )
        )
        (bbox_embed): ModuleList(
          (0-5): 6 x MLP(
            (layers): ModuleList(
              (0-1): 2 x Linear(in_features=256, out_features=256, bias=True)
              (2): Linear(in_features=256, out_features=4, bias=True)
            )
          )
        )
        (class_embed): ModuleList(
          (0-5): 6 x Linear(in_features=256, out_features=2, bias=True)
        )
      )
      (tgt_embed): Embedding(900, 256)
      (enc_output): Linear(in_features=256, out_features=256, bias=True)
      (enc_output_norm): LayerNorm((256,), eps=1e-05, elementwise_affine=True)
      (enc_out_bbox_embed): MLP(
        (layers): ModuleList(
          (0-1): 2 x Linear(in_features=256, out_features=256, bias=True)
          (2): Linear(in_features=256, out_features=4, bias=True)
        )
      )
      (enc_out_class_embed): Linear(in_features=256, out_features=2, bias=True)
    )
    (label_enc): Embedding(3, 256)
    (input_proj): ModuleList(
      (0): Sequential(
        (0): Conv2d(256, 256, kernel_size=(1, 1), stride=(1, 1))
        (1): GroupNorm(32, 256, eps=1e-05, affine=True)
      )
      (1): Sequential(
        (0): Conv2d(512, 256, kernel_size=(1, 1), stride=(1, 1))
        (1): GroupNorm(32, 256, eps=1e-05, affine=True)
      )
      (2): Sequential(
        (0): Conv2d(1024, 256, kernel_size=(1, 1), stride=(1, 1))
        (1): GroupNorm(32, 256, eps=1e-05, affine=True)
      )
      (3): Sequential(
        (0): Conv2d(2048, 256, kernel_size=(1, 1), stride=(1, 1))
        (1): GroupNorm(32, 256, eps=1e-05, affine=True)
      )
      (4): Sequential(
        (0): Conv2d(2048, 256, kernel_size=(3, 3), stride=(2, 2), padding=(1, 1))
        (1): GroupNorm(32, 256, eps=1e-05, affine=True)
      )
    )
    (backbone): Joiner(
      (0): Backbone(
        (body): IntermediateLayerGetter(
          (conv1): Conv2d(3, 64, kernel_size=(7, 7), stride=(2, 2), padding=(3, 3), bias=False)
          (bn1): FrozenBatchNorm2d()
          (relu): ReLU(inplace=True)
          (maxpool): MaxPool2d(kernel_size=3, stride=2, padding=1, dilation=1, ceil_mode=False)
          (layer1): Sequential(
            (0): Bottleneck(
              (conv1): Conv2d(64, 64, kernel_size=(1, 1), stride=(1, 1), bias=False)
              (bn1): FrozenBatchNorm2d()
              (conv2): Conv2d(64, 64, kernel_size=(3, 3), stride=(1, 1), padding=(1, 1), bias=False)
              (bn2): FrozenBatchNorm2d()
              (conv3): Conv2d(64, 256, kernel_size=(1, 1), stride=(1, 1), bias=False)
              (bn3): FrozenBatchNorm2d()
              (relu): ReLU(inplace=True)
              (downsample): Sequential(
                (0): Conv2d(64, 256, kernel_size=(1, 1), stride=(1, 1), bias=False)
                (1): FrozenBatchNorm2d()
              )
            )
            (1): Bottleneck(
              (conv1): Conv2d(256, 64, kernel_size=(1, 1), stride=(1, 1), bias=False)
              (bn1): FrozenBatchNorm2d()
              (conv2): Conv2d(64, 64, kernel_size=(3, 3), stride=(1, 1), padding=(1, 1), bias=False)
              (bn2): FrozenBatchNorm2d()
              (conv3): Conv2d(64, 256, kernel_size=(1, 1), stride=(1, 1), bias=False)
              (bn3): FrozenBatchNorm2d()
              (relu): ReLU(inplace=True)
            )
            (2): Bottleneck(
              (conv1): Conv2d(256, 64, kernel_size=(1, 1), stride=(1, 1), bias=False)
              (bn1): FrozenBatchNorm2d()
              (conv2): Conv2d(64, 64, kernel_size=(3, 3), stride=(1, 1), padding=(1, 1), bias=False)
              (bn2): FrozenBatchNorm2d()
              (conv3): Conv2d(64, 256, kernel_size=(1, 1), stride=(1, 1), bias=False)
              (bn3): FrozenBatchNorm2d()
              (relu): ReLU(inplace=True)
            )
          )
          (layer2): Sequential(
            (0): Bottleneck(
              (conv1): Conv2d(256, 128, kernel_size=(1, 1), stride=(1, 1), bias=False)
              (bn1): FrozenBatchNorm2d()
              (conv2): Conv2d(128, 128, kernel_size=(3, 3), stride=(2, 2), padding=(1, 1), bias=False)
              (bn2): FrozenBatchNorm2d()
              (conv3): Conv2d(128, 512, kernel_size=(1, 1), stride=(1, 1), bias=False)
              (bn3): FrozenBatchNorm2d()
              (relu): ReLU(inplace=True)
              (downsample): Sequential(
                (0): Conv2d(256, 512, kernel_size=(1, 1), stride=(2, 2), bias=False)
                (1): FrozenBatchNorm2d()
              )
            )
            (1): Bottleneck(
              (conv1): Conv2d(512, 128, kernel_size=(1, 1), stride=(1, 1), bias=False)
              (bn1): FrozenBatchNorm2d()
              (conv2): Conv2d(128, 128, kernel_size=(3, 3), stride=(1, 1), padding=(1, 1), bias=False)
              (bn2): FrozenBatchNorm2d()
              (conv3): Conv2d(128, 512, kernel_size=(1, 1), stride=(1, 1), bias=False)
              (bn3): FrozenBatchNorm2d()
              (relu): ReLU(inplace=True)
            )
            (2): Bottleneck(
              (conv1): Conv2d(512, 128, kernel_size=(1, 1), stride=(1, 1), bias=False)
              (bn1): FrozenBatchNorm2d()
              (conv2): Conv2d(128, 128, kernel_size=(3, 3), stride=(1, 1), padding=(1, 1), bias=False)
              (bn2): FrozenBatchNorm2d()
              (conv3): Conv2d(128, 512, kernel_size=(1, 1), stride=(1, 1), bias=False)
              (bn3): FrozenBatchNorm2d()
              (relu): ReLU(inplace=True)
            )
            (3): Bottleneck(
              (conv1): Conv2d(512, 128, kernel_size=(1, 1), stride=(1, 1), bias=False)
              (bn1): FrozenBatchNorm2d()
              (conv2): Conv2d(128, 128, kernel_size=(3, 3), stride=(1, 1), padding=(1, 1), bias=False)
              (bn2): FrozenBatchNorm2d()
              (conv3): Conv2d(128, 512, kernel_size=(1, 1), stride=(1, 1), bias=False)
              (bn3): FrozenBatchNorm2d()
              (relu): ReLU(inplace=True)
            )
          )
          (layer3): Sequential(
            (0): Bottleneck(
              (conv1): Conv2d(512, 256, kernel_size=(1, 1), stride=(1, 1), bias=False)
              (bn1): FrozenBatchNorm2d()
              (conv2): Conv2d(256, 256, kernel_size=(3, 3), stride=(2, 2), padding=(1, 1), bias=False)
              (bn2): FrozenBatchNorm2d()
              (conv3): Conv2d(256, 1024, kernel_size=(1, 1), stride=(1, 1), bias=False)
              (bn3): FrozenBatchNorm2d()
              (relu): ReLU(inplace=True)
              (downsample): Sequential(
                (0): Conv2d(512, 1024, kernel_size=(1, 1), stride=(2, 2), bias=False)
                (1): FrozenBatchNorm2d()
              )
            )
            (1): Bottleneck(
              (conv1): Conv2d(1024, 256, kernel_size=(1, 1), stride=(1, 1), bias=False)
              (bn1): FrozenBatchNorm2d()
              (conv2): Conv2d(256, 256, kernel_size=(3, 3), stride=(1, 1), padding=(1, 1), bias=False)
              (bn2): FrozenBatchNorm2d()
              (conv3): Conv2d(256, 1024, kernel_size=(1, 1), stride=(1, 1), bias=False)
              (bn3): FrozenBatchNorm2d()
              (relu): ReLU(inplace=True)
            )
            (2): Bottleneck(
              (conv1): Conv2d(1024, 256, kernel_size=(1, 1), stride=(1, 1), bias=False)
              (bn1): FrozenBatchNorm2d()
              (conv2): Conv2d(256, 256, kernel_size=(3, 3), stride=(1, 1), padding=(1, 1), bias=False)
              (bn2): FrozenBatchNorm2d()
              (conv3): Conv2d(256, 1024, kernel_size=(1, 1), stride=(1, 1), bias=False)
              (bn3): FrozenBatchNorm2d()
              (relu): ReLU(inplace=True)
            )
            (3): Bottleneck(
              (conv1): Conv2d(1024, 256, kernel_size=(1, 1), stride=(1, 1), bias=False)
              (bn1): FrozenBatchNorm2d()
              (conv2): Conv2d(256, 256, kernel_size=(3, 3), stride=(1, 1), padding=(1, 1), bias=False)
              (bn2): FrozenBatchNorm2d()
              (conv3): Conv2d(256, 1024, kernel_size=(1, 1), stride=(1, 1), bias=False)
              (bn3): FrozenBatchNorm2d()
              (relu): ReLU(inplace=True)
            )
            (4): Bottleneck(
              (conv1): Conv2d(1024, 256, kernel_size=(1, 1), stride=(1, 1), bias=False)
              (bn1): FrozenBatchNorm2d()
              (conv2): Conv2d(256, 256, kernel_size=(3, 3), stride=(1, 1), padding=(1, 1), bias=False)
              (bn2): FrozenBatchNorm2d()
              (conv3): Conv2d(256, 1024, kernel_size=(1, 1), stride=(1, 1), bias=False)
              (bn3): FrozenBatchNorm2d()
              (relu): ReLU(inplace=True)
            )
            (5): Bottleneck(
              (conv1): Conv2d(1024, 256, kernel_size=(1, 1), stride=(1, 1), bias=False)
              (bn1): FrozenBatchNorm2d()
              (conv2): Conv2d(256, 256, kernel_size=(3, 3), stride=(1, 1), padding=(1, 1), bias=False)
              (bn2): FrozenBatchNorm2d()
              (conv3): Conv2d(256, 1024, kernel_size=(1, 1), stride=(1, 1), bias=False)
              (bn3): FrozenBatchNorm2d()
              (relu): ReLU(inplace=True)
            )
          )
          (layer4): Sequential(
            (0): Bottleneck(
              (conv1): Conv2d(1024, 512, kernel_size=(1, 1), stride=(1, 1), bias=False)
              (bn1): FrozenBatchNorm2d()
              (conv2): Conv2d(512, 512, kernel_size=(3, 3), stride=(2, 2), padding=(1, 1), bias=False)
              (bn2): FrozenBatchNorm2d()
              (conv3): Conv2d(512, 2048, kernel_size=(1, 1), stride=(1, 1), bias=False)
              (bn3): FrozenBatchNorm2d()
              (relu): ReLU(inplace=True)
              (downsample): Sequential(
                (0): Conv2d(1024, 2048, kernel_size=(1, 1), stride=(2, 2), bias=False)
                (1): FrozenBatchNorm2d()
              )
            )
            (1): Bottleneck(
              (conv1): Conv2d(2048, 512, kernel_size=(1, 1), stride=(1, 1), bias=False)
              (bn1): FrozenBatchNorm2d()
              (conv2): Conv2d(512, 512, kernel_size=(3, 3), stride=(1, 1), padding=(1, 1), bias=False)
              (bn2): FrozenBatchNorm2d()
              (conv3): Conv2d(512, 2048, kernel_size=(1, 1), stride=(1, 1), bias=False)
              (bn3): FrozenBatchNorm2d()
              (relu): ReLU(inplace=True)
            )
            (2): Bottleneck(
              (conv1): Conv2d(2048, 512, kernel_size=(1, 1), stride=(1, 1), bias=False)
              (bn1): FrozenBatchNorm2d()
              (conv2): Conv2d(512, 512, kernel_size=(3, 3), stride=(1, 1), padding=(1, 1), bias=False)
              (bn2): FrozenBatchNorm2d()
              (conv3): Conv2d(512, 2048, kernel_size=(1, 1), stride=(1, 1), bias=False)
              (bn3): FrozenBatchNorm2d()
              (relu): ReLU(inplace=True)
            )
          )
        )
      )
      (1): PositionEmbeddingSineHW()
    )
    (bbox_embed): ModuleList(
      (0-5): 6 x MLP(
        (layers): ModuleList(
          (0-1): 2 x Linear(in_features=256, out_features=256, bias=True)
          (2): Linear(in_features=256, out_features=4, bias=True)
        )
      )
    )
    (class_embed): ModuleList(
      (0-5): 6 x Linear(in_features=256, out_features=2, bias=True)
    )
  )
  (criterion): SetCriterion(
    (matcher): HungarianMatcher()
  )
)
[10/27 22:45:32] d2.data.build INFO: Distribution of instances among all 2 categories:
[36m|  category  | #instances   |  category  | #instances   |
|:----------:|:-------------|:----------:|:-------------|
…
[38;5;204mVERSION[39m[38;5;15m:[39m[38;5;15m [39m[38;5;141m2[39m
[38;5;204mVIS_PERIOD[39m[38;5;15m:[39m[38;5;15m [39m[38;5;141m0[39m

[10/28 01:23:29] detectron2 INFO: Full config saved to ./output/config.yaml
[10/28 01:23:29] d2.utils.env INFO: Using a generated random seed 32952024
[10/28 01:23:31] d2.engine.defaults INFO: Model:
Dino(
  (model): DINO(
    (transformer): DeformableTransformer(
      (encoder): TransformerEncoder(
        (layers): ModuleList(
          (0-5): 6 x DeformableTransformerEncoderLayer(
            (self_attn): MSDeformAttn(
              (sampling_offsets): Linear(in_features=256, out_features=320, bias=True)
              (attention_weights): Linear(in_features=256, out_features=160, bias=True)
              (value_proj): Linear(in_features=256, out_features=256, bias=True)
              (output_proj): Linear(in_features=256, out_features=256, bias=True)
            )
            (dropout1): Dropout(p=0.0, inplace=False)
            (norm1): LayerNorm((256,), eps=1e-05, elementwise_affine=True)
            (linear1): Linear(in_features=256, out_features=2048, bias=True)
            (dropout2): Dropout(p=0.0, inplace=False)
            (linear2): Linear(in_features=2048, out_features=256, bias=True)
            (dropout3): Dropout(p=0.0, inplace=False)
            (norm2): LayerNorm((256,), eps=1e-05, elementwise_affine=True)
          )
        )
      )
      (decoder): TransformerDecoder(
        (layers): ModuleList(
          (0-5): 6 x DeformableTransformerDecoderLayer(
            (cross_attn): MSDeformAttn(
              (sampling_offsets): Linear(in_features=256, out_features=320, bias=True)
              (attention_weights): Linear(in_features=256, out_features=160, bias=True)
              (value_proj): Linear(in_features=256, out_features=256, bias=True)
              (output_proj): Linear(in_features=256, out_features=256, bias=True)
            )
            (dropout1): Dropout(p=0.0, inplace=False)
            (norm1): LayerNorm((256,), eps=1e-05, elementwise_affine=True)
            (self_attn): MultiheadAttention(
              (out_proj): NonDynamicallyQuantizableLinear(in_features=256, out_features=256, bias=True)
            )
            (dropout2): Dropout(p=0.0, inplace=False)
            (norm2): LayerNorm((256,), eps=1e-05, elementwise_affine=True)
            (linear1): Linear(in_features=256, out_features=2048, bias=True)
            (dropout3): Dropout(p=0.0, inplace=False)
            (linear2): Linear(in_features=2048, out_features=256, bias=True)
            (dropout4): Dropout(p=0.0, inplace=False)
            (norm3): LayerNorm((256,), eps=1e-05, elementwise_affine=True)
          )
        )
        (norm): LayerNorm((256,), eps=1e-05, elementwise_affine=True)
        (ref_point_head): MLP(
          (layers): ModuleList(
            (0): Linear(in_features=512, out_features=256, bias=True)
            (1): Linear(in_features=256, out_features=256, bias=True)
          )
        )
        (bbox_embed): ModuleList(
          (0-5): 6 x MLP(
            (layers): ModuleList(
              (0-1): 2 x Linear(in_features=256, out_features=256, bias=True)
              (2): Linear(in_features=256, out_features=4, bias=True)
            )
          )
        )
        (class_embed): ModuleList(
          (0-5): 6 x Linear(in_features=256, out_features=2, bias=True)
        )
      )
      (tgt_embed): Embedding(900, 256)
      (enc_output): Linear(in_features=256, out_features=256, bias=True)
      (enc_output_norm): LayerNorm((256,), eps=1e-05, elementwise_affine=True)
      (enc_out_bbox_embed): MLP(
        (layers): ModuleList(
          (0-1): 2 x Linear(in_features=256, out_features=256, bias=True)
          (2): Linear(in_features=256, out_features=4, bias=True)
        )
      )
      (enc_out_class_embed): Linear(in_features=256, out_features=2, bias=True)
    )
    (label_enc): Embedding(3, 256)
    (input_proj): ModuleList(
      (0): Sequential(
        (0): Conv2d(256, 256, kernel_size=(1, 1), stride=(1, 1))
        (1): GroupNorm(32, 256, eps=1e-05, affine=True)
      )
      (1): Sequential(
        (0): Conv2d(512, 256, kernel_size=(1, 1), stride=(1, 1))
        (1): GroupNorm(32, 256, eps=1e-05, affine=True)
      )
      (2): Sequential(
        (0): Conv2d(1024, 256, kernel_size=(1, 1), stride=(1, 1))
        (1): GroupNorm(32, 256, eps=1e-05, affine=True)
      )
      (3): Sequential(
        (0): Conv2d(2048, 256, kernel_size=(1, 1), stride=(1, 1))
        (1): GroupNorm(32, 256, eps=1e-05, affine=True)
      )
      (4): Sequential(
        (0): Conv2d(2048, 256, kernel_size=(3, 3), stride=(2, 2), padding=(1, 1))
        (1): GroupNorm(32, 256, eps=1e-05, affine=True)
      )
    )
    (backbone): Joiner(
      (0): Backbone(
        (body): IntermediateLayerGetter(
          (conv1): Conv2d(3, 64, kernel_size=(7, 7), stride=(2, 2), padding=(3, 3), bias=False)
          (bn1): FrozenBatchNorm2d()
          (relu): ReLU(inplace=True)
          (maxpool): MaxPool2d(kernel_size=3, stride=2, padding=1, dilation=1, ceil_mode=False)
          (layer1): Sequential(
            (0): Bottleneck(
              (conv1): Conv2d(64, 64, kernel_size=(1, 1), stride=(1, 1), bias=False)
              (bn1): FrozenBatchNorm2d()
              (conv2): Conv2d(64, 64, kernel_size=(3, 3), stride=(1, 1), padding=(1, 1), bias=False)
              (bn2): FrozenBatchNorm2d()
              (conv3): Conv2d(64, 256, kernel_size=(1, 1), stride=(1, 1), bias=False)
              (bn3): FrozenBatchNorm2d()
              (relu): ReLU(inplace=True)
              (downsample): Sequential(
                (0): Conv2d(64, 256, kernel_size=(1, 1), stride=(1, 1), bias=False)
                (1): FrozenBatchNorm2d()
              )
            )
            (1): Bottleneck(
              (conv1): Conv2d(256, 64, kernel_size=(1, 1), stride=(1, 1), bias=False)
              (bn1): FrozenBatchNorm2d()
              (conv2): Conv2d(64, 64, kernel_size=(3, 3), stride=(1, 1), padding=(1, 1), bias=False)
              (bn2): FrozenBatchNorm2d()
              (conv3): Conv2d(64, 256, kernel_size=(1, 1), stride=(1, 1), bias=False)
              (bn3): FrozenBatchNorm2d()
              (relu): ReLU(inplace=True)
            )
            (2): Bottleneck(
              (conv1): Conv2d(256, 64, kernel_size=(1, 1), stride=(1, 1), bias=False)
              (bn1): FrozenBatchNorm2d()
              (conv2): Conv2d(64, 64, kernel_size=(3, 3), stride=(1, 1), padding=(1, 1), bias=False)
              (bn2): FrozenBatchNorm2d()
              (conv3): Conv2d(64, 256, kernel_size=(1, 1), stride=(1, 1), bias=False)
              (bn3): FrozenBatchNorm2d()
              (relu): ReLU(inplace=True)
            )
          )
          (layer2): Sequential(
            (0): Bottleneck(
              (conv1): Conv2d(256, 128, kernel_size=(1, 1), stride=(1, 1), bias=False)
              (bn1): FrozenBatchNorm2d()
              (conv2): Conv2d(128, 128, kernel_size=(3, 3), stride=(2, 2), padding=(1, 1), bias=False)
              (bn2): FrozenBatchNorm2d()
              (conv3): Conv2d(128, 512, kernel_size=(1, 1), stride=(1, 1), bias=False)
              (bn3): FrozenBatchNorm2d()
              (relu): ReLU(inplace=True)
              (downsample): Sequential(
                (0): Conv2d(256, 512, kernel_size=(1, 1), stride=(2, 2), bias=False)
                (1): FrozenBatchNorm2d()
              )
            )
            (1): Bottleneck(
              (conv1): Conv2d(512, 128, kernel_size=(1, 1), stride=(1, 1), bias=False)
              (bn1): FrozenBatchNorm2d()
              (conv2): Conv2d(128, 128, kernel_size=(3, 3), stride=(1, 1), padding=(1, 1), bias=False)
              (bn2): FrozenBatchNorm2d()
              (conv3): Conv2d(128, 512, kernel_size=(1, 1), stride=(1, 1), bias=False)
              (bn3): FrozenBatchNorm2d()
              (relu): ReLU(inplace=True)
            )
            (2): Bottleneck(
              (conv1): Conv2d(512, 128, kernel_size=(1, 1), stride=(1, 1), bias=False)
              (bn1): FrozenBatchNorm2d()
              (conv2): Conv2d(128, 128, kernel_size=(3, 3), stride=(1, 1), padding=(1, 1), bias=False)
              (bn2): FrozenBatchNorm2d()
              (conv3): Conv2d(128, 512, kernel_size=(1, 1), stride=(1, 1), bias=False)
              (bn3): FrozenBatchNorm2d()
              (relu): ReLU(inplace=True)
            )
            (3): Bottleneck(
              (conv1): Conv2d(512, 128, kernel_size=(1, 1), stride=(1, 1), bias=False)
              (bn1): FrozenBatchNorm2d()
              (conv2): Conv2d(128, 128, kernel_size=(3, 3), stride=(1, 1), padding=(1, 1), bias=False)
              (bn2): FrozenBatchNorm2d()
              (conv3): Conv2d(128, 512, kernel_size=(1, 1), stride=(1, 1), bias=False)
              (bn3): FrozenBatchNorm2d()
              (relu): ReLU(inplace=True)
            )
          )
          (layer3): Sequential(
            (0): Bottleneck(
              (conv1): Conv2d(512, 256, kernel_size=(1, 1), stride=(1, 1), bias=False)
              (bn1): FrozenBatchNorm2d()
              (conv2): Conv2d(256, 256, kernel_size=(3, 3), stride=(2, 2), padding=(1, 1), bias=False)
              (bn2): FrozenBatchNorm2d()
              (conv3): Conv2d(256, 1024, kernel_size=(1, 1), stride=(1, 1), bias=False)
              (bn3): FrozenBatchNorm2d()
              (relu): ReLU(inplace=True)
              (downsample): Sequential(
                (0): Conv2d(512, 1024, kernel_size=(1, 1), stride=(2, 2), bias=False)
                (1): FrozenBatchNorm2d()
              )
            )
            (1): Bottleneck(
              (conv1): Conv2d(1024, 256, kernel_size=(1, 1), stride=(1, 1), bias=False)
              (bn1): FrozenBatchNorm2d()
              (conv2): Conv2d(256, 256, kernel_size=(3, 3), stride=(1, 1), padding=(1, 1), bias=False)
              (bn2): FrozenBatchNorm2d()
              (conv3): Conv2d(256, 1024, kernel_size=(1, 1), stride=(1, 1), bias=False)
              (bn3): FrozenBatchNorm2d()
              (relu): ReLU(inplace=True)
            )
            (2): Bottleneck(
              (conv1): Conv2d(1024, 256, kernel_size=(1, 1), stride=(1, 1), bias=False)
              (bn1): FrozenBatchNorm2d()
              (conv2): Conv2d(256, 256, kernel_size=(3, 3), stride=(1, 1), padding=(1, 1), bias=False)
              (bn2): FrozenBatchNorm2d()
              (conv3): Conv2d(256, 1024, kernel_size=(1, 1), stride=(1, 1), bias=False)
              (bn3): FrozenBatchNorm2d()
              (relu): ReLU(inplace=True)
            )
            (3): Bottleneck(
              (conv1): Conv2d(1024, 256, kernel_size=(1, 1), stride=(1, 1), bias=False)
              (bn1): FrozenBatchNorm2d()
              (conv2): Conv2d(256, 256, kernel_size=(3, 3), stride=(1, 1), padding=(1, 1), bias=False)
              (bn2): FrozenBatchNorm2d()
              (conv3): Conv2d(256, 1024, kernel_size=(1, 1), stride=(1, 1), bias=False)
              (bn3): FrozenBatchNorm2d()
              (relu): ReLU(inplace=True)
            )
            (4): Bottleneck(
              (conv1): Conv2d(1024, 256, kernel_size=(1, 1), stride=(1, 1), bias=False)
              (bn1): FrozenBatchNorm2d()
              (conv2): Conv2d(256, 256, kernel_size=(3, 3), stride=(1, 1), padding=(1, 1), bias=False)
              (bn2): FrozenBatchNorm2d()
              (conv3): Conv2d(256, 1024, kernel_size=(1, 1), stride=(1, 1), bias=False)
              (bn3): FrozenBatchNorm2d()
              (relu): ReLU(inplace=True)
            )
            (5): Bottleneck(
              (conv1): Conv2d(1024, 256, kernel_size=(1, 1), stride=(1, 1), bias=False)
              (bn1): FrozenBatchNorm2d()
              (conv2): Conv2d(256, 256, kernel_size=(3, 3), stride=(1, 1), padding=(1, 1), bias=False)
              (bn2): FrozenBatchNorm2d()
              (conv3): Conv2d(256, 1024, kernel_size=(1, 1), stride=(1, 1), bias=False)
              (bn3): FrozenBatchNorm2d()
              (relu): ReLU(inplace=True)
            )
          )
          (layer4): Sequential(
            (0): Bottleneck(
              (conv1): Conv2d(1024, 512, kernel_size=(1, 1), stride=(1, 1), bias=False)
              (bn1): FrozenBatchNorm2d()
              (conv2): Conv2d(512, 512, kernel_size=(3, 3), stride=(2, 2), padding=(1, 1), bias=False)
              (bn2): FrozenBatchNorm2d()
              (conv3): Conv2d(512, 2048, kernel_size=(1, 1), stride=(1, 1), bias=False)
              (bn3): FrozenBatchNorm2d()
              (relu): ReLU(inplace=True)
              (downsample): Sequential(
                (0): Conv2d(1024, 2048, kernel_size=(1, 1), stride=(2, 2), bias=False)
                (1): FrozenBatchNorm2d()
              )
            )
            (1): Bottleneck(
              (conv1): Conv2d(2048, 512, kernel_size=(1, 1), stride=(1, 1), bias=False)
              (bn1): FrozenBatchNorm2d()
              (conv2): Conv2d(512, 512, kernel_size=(3, 3), stride=(1, 1), padding=(1, 1), bias=False)
              (bn2): FrozenBatchNorm2d()
              (conv3): Conv2d(512, 2048, kernel_size=(1, 1), stride=(1, 1), bias=False)
              (bn3): FrozenBatchNorm2d()
              (relu): ReLU(inplace=True)
            )
            (2): Bottleneck(
              (conv1): Conv2d(2048, 512, kernel_size=(1, 1), stride=(1, 1), bias=False)
              (bn1): FrozenBatchNorm2d()
              (conv2): Conv2d(512, 512, kernel_size=(3, 3), stride=(1, 1), padding=(1, 1), bias=False)
              (bn2): FrozenBatchNorm2d()
              (conv3): Conv2d(512, 2048, kernel_size=(1, 1), stride=(1, 1), bias=False)
              (bn3): FrozenBatchNorm2d()
              (relu): ReLU(inplace=True)
            )
          )
        )
      )
      (1): PositionEmbeddingSineHW()
    )
    (bbox_embed): ModuleList(
      (0-5): 6 x MLP(
        (layers): ModuleList(
          (0-1): 2 x Linear(in_features=256, out_features=256, bias=True)
          (2): Linear(in_features=256, out_features=4, bias=True)
        )
      )
    )
    (class_embed): ModuleList(
      (0-5): 6 x Linear(in_features=256, out_features=2, bias=True)
    )
  )
  (criterion): SetCriterion(
    (matcher): HungarianMatcher()
  )
)
[10/28 01:23:32] d2.engine.defaults INFO: Model:
Dino(
  (model): DINO(
    (transformer): DeformableTransformer(
      (encoder): TransformerEncoder(
        (layers): ModuleList(
          (0-5): 6 x DeformableTransformerEncoderLayer(
            (self_attn): MSDeformAttn(
              (sampling_offsets): Linear(in_features=256, out_features=320, bias=True)
              (attention_weights): Linear(in_features=256, out_features=160, bias=True)
              (value_proj): Linear(in_features=256, out_features=256, bias=True)
              (output_proj): Linear(in_features=256, out_features=256, bias=True)
            )
            (dropout1): Dropout(p=0.0, inplace=False)
            (norm1): LayerNorm((256,), eps=1e-05, elementwise_affine=True)
            (linear1): Linear(in_features=256, out_features=2048, bias=True)
            (dropout2): Dropout(p=0.0, inplace=False)
            (linear2): Linear(in_features=2048, out_features=256, bias=True)
            (dropout3): Dropout(p=0.0, inplace=False)
            (norm2): LayerNorm((256,), eps=1e-05, elementwise_affine=True)
          )
        )
      )
      (decoder): TransformerDecoder(
        (layers): ModuleList(
          (0-5): 6 x DeformableTransformerDecoderLayer(
            (cross_attn): MSDeformAttn(
              (sampling_offsets): Linear(in_features=256, out_features=320, bias=True)
              (attention_weights): Linear(in_features=256, out_features=160, bias=True)
              (value_proj): Linear(in_features=256, out_features=256, bias=True)
              (output_proj): Linear(in_features=256, out_features=256, bias=True)
            )
            (dropout1): Dropout(p=0.0, inplace=False)
            (norm1): LayerNorm((256,), eps=1e-05, elementwise_affine=True)
            (self_attn): MultiheadAttention(
              (out_proj): NonDynamicallyQuantizableLinear(in_features=256, out_features=256, bias=True)
            )
            (dropout2): Dropout(p=0.0, inplace=False)
            (norm2): LayerNorm((256,), eps=1e-05, elementwise_affine=True)
            (linear1): Linear(in_features=256, out_features=2048, bias=True)
            (dropout3): Dropout(p=0.0, inplace=False)
            (linear2): Linear(in_features=2048, out_features=256, bias=True)
            (dropout4): Dropout(p=0.0, inplace=False)
            (norm3): LayerNorm((256,), eps=1e-05, elementwise_affine=True)
          )
        )
        (norm): LayerNorm((256,), eps=1e-05, elementwise_affine=True)
        (ref_point_head): MLP(
          (layers): ModuleList(
            (0): Linear(in_features=512, out_features=256, bias=True)
            (1): Linear(in_features=256, out_features=256, bias=True)
          )
        )
        (bbox_embed): ModuleList(
          (0-5): 6 x MLP(
            (layers): ModuleList(
              (0-1): 2 x Linear(in_features=256, out_features=256, bias=True)
              (2): Linear(in_features=256, out_features=4, bias=True)
            )
          )
        )
        (class_embed): ModuleList(
          (0-5): 6 x Linear(in_features=256, out_features=2, bias=True)
        )
      )
      (tgt_embed): Embedding(900, 256)
      (enc_output): Linear(in_features=256, out_features=256, bias=True)
      (enc_output_norm): LayerNorm((256,), eps=1e-05, elementwise_affine=True)
      (enc_out_bbox_embed): MLP(
        (layers): ModuleList(
          (0-1): 2 x Linear(in_features=256, out_features=256, bias=True)
          (2): Linear(in_features=256, out_features=4, bias=True)
        )
      )
      (enc_out_class_embed): Linear(in_features=256, out_features=2, bias=True)
    )
    (label_enc): Embedding(3, 256)
    (input_proj): ModuleList(
      (0): Sequential(
        (0): Conv2d(256, 256, kernel_size=(1, 1), stride=(1, 1))
        (1): GroupNorm(32, 256, eps=1e-05, affine=True)
      )
      (1): Sequential(
        (0): Conv2d(512, 256, kernel_size=(1, 1), stride=(1, 1))
        (1): GroupNorm(32, 256, eps=1e-05, affine=True)
      )
      (2): Sequential(
        (0): Conv2d(1024, 256, kernel_size=(1, 1), stride=(1, 1))
        (1): GroupNorm(32, 256, eps=1e-05, affine=True)
      )
      (3): Sequential(
        (0): Conv2d(2048, 256, kernel_size=(1, 1), stride=(1, 1))
        (1): GroupNorm(32, 256, eps=1e-05, affine=True)
      )
      (4): Sequential(
        (0): Conv2d(2048, 256, kernel_size=(3, 3), stride=(2, 2), padding=(1, 1))
        (1): GroupNorm(32, 256, eps=1e-05, affine=True)
      )
    )
    (backbone): Joiner(
      (0): Backbone(
        (body): IntermediateLayerGetter(
          (conv1): Conv2d(3, 64, kernel_size=(7, 7), stride=(2, 2), padding=(3, 3), bias=False)
          (bn1): FrozenBatchNorm2d()
          (relu): ReLU(inplace=True)
          (maxpool): MaxPool2d(kernel_size=3, stride=2, padding=1, dilation=1, ceil_mode=False)
          (layer1): Sequential(
            (0): Bottleneck(
              (conv1): Conv2d(64, 64, kernel_size=(1, 1), stride=(1, 1), bias=False)
              (bn1): FrozenBatchNorm2d()
              (conv2): Conv2d(64, 64, kernel_size=(3, 3), stride=(1, 1), padding=(1, 1), bias=False)
              (bn2): FrozenBatchNorm2d()
              (conv3): Conv2d(64, 256, kernel_size=(1, 1), stride=(1, 1), bias=False)
              (bn3): FrozenBatchNorm2d()
              (relu): ReLU(inplace=True)
              (downsample): Sequential(
                (0): Conv2d(64, 256, kernel_size=(1, 1), stride=(1, 1), bias=False)
                (1): FrozenBatchNorm2d()
              )
            )
            (1): Bottleneck(
              (conv1): Conv2d(256, 64, kernel_size=(1, 1), stride=(1, 1), bias=False)
              (bn1): FrozenBatchNorm2d()
              (conv2): Conv2d(64, 64, kernel_size=(3, 3), stride=(1, 1), padding=(1, 1), bias=False)
              (bn2): FrozenBatchNorm2d()
              (conv3): Conv2d(64, 256, kernel_size=(1, 1), stride=(1, 1), bias=False)
              (bn3): FrozenBatchNorm2d()
              (relu): ReLU(inplace=True)
            )
            (2): Bottleneck(
              (conv1): Conv2d(256, 64, kernel_size=(1, 1), stride=(1, 1), bias=False)
              (bn1): FrozenBatchNorm2d()
              (conv2): Conv2d(64, 64, kernel_size=(3, 3), stride=(1, 1), padding=(1, 1), bias=False)
              (bn2): FrozenBatchNorm2d()
              (conv3): Conv2d(64, 256, kernel_size=(1, 1), stride=(1, 1), bias=False)
              (bn3): FrozenBatchNorm2d()
              (relu): ReLU(inplace=True)
            )
          )
          (layer2): Sequential(
            (0): Bottleneck(
              (conv1): Conv2d(256, 128, kernel_size=(1, 1), stride=(1, 1), bias=False)
              (bn1): FrozenBatchNorm2d()
              (conv2): Conv2d(128, 128, kernel_size=(3, 3), stride=(2, 2), padding=(1, 1), bias=False)
              (bn2): FrozenBatchNorm2d()
              (conv3): Conv2d(128, 512, kernel_size=(1, 1), stride=(1, 1), bias=False)
              (bn3): FrozenBatchNorm2d()
              (relu): ReLU(inplace=True)
              (downsample): Sequential(
                (0): Conv2d(256, 512, kernel_size=(1, 1), stride=(2, 2), bias=False)
                (1): FrozenBatchNorm2d()
              )
            )
            (1): Bottleneck(
              (conv1): Conv2d(512, 128, kernel_size=(1, 1), stride=(1, 1), bias=False)
              (bn1): FrozenBatchNorm2d()
              (conv2): Conv2d(128, 128, kernel_size=(3, 3), stride=(1, 1), padding=(1, 1), bias=False)
              (bn2): FrozenBatchNorm2d()
              (conv3): Conv2d(128, 512, kernel_size=(1, 1), stride=(1, 1), bias=False)
              (bn3): FrozenBatchNorm2d()
              (relu): ReLU(inplace=True)
            )
            (2): Bottleneck(
              (conv1): Conv2d(512, 128, kernel_size=(1, 1), stride=(1, 1), bias=False)
              (bn1): FrozenBatchNorm2d()
              (conv2): Conv2d(128, 128, kernel_size=(3, 3), stride=(1, 1), padding=(1, 1), bias=False)
              (bn2): FrozenBatchNorm2d()
              (conv3): Conv2d(128, 512, kernel_size=(1, 1), stride=(1, 1), bias=False)
              (bn3): FrozenBatchNorm2d()
              (relu): ReLU(inplace=True)
            )
            (3): Bottleneck(
              (conv1): Conv2d(512, 128, kernel_size=(1, 1), stride=(1, 1), bias=False)
              (bn1): FrozenBatchNorm2d()
              (conv2): Conv2d(128, 128, kernel_size=(3, 3), stride=(1, 1), padding=(1, 1), bias=False)
              (bn2): FrozenBatchNorm2d()
              (conv3): Conv2d(128, 512, kernel_size=(1, 1), stride=(1, 1), bias=False)
              (bn3): FrozenBatchNorm2d()
              (relu): ReLU(inplace=True)
            )
          )
          (layer3): Sequential(
            (0): Bottleneck(
              (conv1): Conv2d(512, 256, kernel_size=(1, 1), stride=(1, 1), bias=False)
              (bn1): FrozenBatchNorm2d()
              (conv2): Conv2d(256, 256, kernel_size=(3, 3), stride=(2, 2), padding=(1, 1), bias=False)
              (bn2): FrozenBatchNorm2d()
              (conv3): Conv2d(256, 1024, kernel_size=(1, 1), stride=(1, 1), bias=False)
              (bn3): FrozenBatchNorm2d()
              (relu): ReLU(inplace=True)
              (downsample): Sequential(
                (0): Conv2d(512, 1024, kernel_size=(1, 1), stride=(2, 2), bias=False)
                (1): FrozenBatchNorm2d()
              )
            )
            (1): Bottleneck(
              (conv1): Conv2d(1024, 256, kernel_size=(1, 1), stride=(1, 1), bias=False)
              (bn1): FrozenBatchNorm2d()
              (conv2): Conv2d(256, 256, kernel_size=(3, 3), stride=(1, 1), padding=(1, 1), bias=False)
              (bn2): FrozenBatchNorm2d()
              (conv3): Conv2d(256, 1024, kernel_size=(1, 1), stride=(1, 1), bias=False)
              (bn3): FrozenBatchNorm2d()
              (relu): ReLU(inplace=True)
            )
            (2): Bottleneck(
              (conv1): Conv2d(1024, 256, kernel_size=(1, 1), stride=(1, 1), bias=False)
              (bn1): FrozenBatchNorm2d()
              (conv2): Conv2d(256, 256, kernel_size=(3, 3), stride=(1, 1), padding=(1, 1), bias=False)
              (bn2): FrozenBatchNorm2d()
              (conv3): Conv2d(256, 1024, kernel_size=(1, 1), stride=(1, 1), bias=False)
              (bn3): FrozenBatchNorm2d()
              (relu): ReLU(inplace=True)
            )
            (3): Bottleneck(
              (conv1): Conv2d(1024, 256, kernel_size=(1, 1), stride=(1, 1), bias=False)
              (bn1): FrozenBatchNorm2d()
              (conv2): Conv2d(256, 256, kernel_size=(3, 3), stride=(1, 1), padding=(1, 1), bias=False)
              (bn2): FrozenBatchNorm2d()
              (conv3): Conv2d(256, 1024, kernel_size=(1, 1), stride=(1, 1), bias=False)
              (bn3): FrozenBatchNorm2d()
              (relu): ReLU(inplace=True)
            )
            (4): Bottleneck(
              (conv1): Conv2d(1024, 256, kernel_size=(1, 1), stride=(1, 1), bias=False)
              (bn1): FrozenBatchNorm2d()
              (conv2): Conv2d(256, 256, kernel_size=(3, 3), stride=(1, 1), padding=(1, 1), bias=False)
              (bn2): FrozenBatchNorm2d()
              (conv3): Conv2d(256, 1024, kernel_size=(1, 1), stride=(1, 1), bias=False)
              (bn3): FrozenBatchNorm2d()
              (relu): ReLU(inplace=True)
            )
            (5): Bottleneck(
              (conv1): Conv2d(1024, 256, kernel_size=(1, 1), stride=(1, 1), bias=False)
              (bn1): FrozenBatchNorm2d()
              (conv2): Conv2d(256, 256, kernel_size=(3, 3), stride=(1, 1), padding=(1, 1), bias=False)
              (bn2): FrozenBatchNorm2d()
              (conv3): Conv2d(256, 1024, kernel_size=(1, 1), stride=(1, 1), bias=False)
              (bn3): FrozenBatchNorm2d()
              (relu): ReLU(inplace=True)
            )
          )
          (layer4): Sequential(
            (0): Bottleneck(
              (conv1): Conv2d(1024, 512, kernel_size=(1, 1), stride=(1, 1), bias=False)
              (bn1): FrozenBatchNorm2d()
              (conv2): Conv2d(512, 512, kernel_size=(3, 3), stride=(2, 2), padding=(1, 1), bias=False)
              (bn2): FrozenBatchNorm2d()
              (conv3): Conv2d(512, 2048, kernel_size=(1, 1), stride=(1, 1), bias=False)
              (bn3): FrozenBatchNorm2d()
              (relu): ReLU(inplace=True)
              (downsample): Sequential(
                (0): Conv2d(1024, 2048, kernel_size=(1, 1), stride=(2, 2), bias=False)
                (1): FrozenBatchNorm2d()
              )
            )
            (1): Bottleneck(
              (conv1): Conv2d(2048, 512, kernel_size=(1, 1), stride=(1, 1), bias=False)
              (bn1): FrozenBatchNorm2d()
              (conv2): Conv2d(512, 512, kernel_size=(3, 3), stride=(1, 1), padding=(1, 1), bias=False)
              (bn2): FrozenBatchNorm2d()
              (conv3): Conv2d(512, 2048, kernel_size=(1, 1), stride=(1, 1), bias=False)
              (bn3): FrozenBatchNorm2d()
              (relu): ReLU(inplace=True)
            )
            (2): Bottleneck(
              (conv1): Conv2d(2048, 512, kernel_size=(1, 1), stride=(1, 1), bias=False)
              (bn1): FrozenBatchNorm2d()
              (conv2): Conv2d(512, 512, kernel_size=(3, 3), stride=(1, 1), padding=(1, 1), bias=False)
              (bn2): FrozenBatchNorm2d()
              (conv3): Conv2d(512, 2048, kernel_size=(1, 1), stride=(1, 1), bias=False)
              (bn3): FrozenBatchNorm2d()
              (relu): ReLU(inplace=True)
            )
          )
        )
      )
      (1): PositionEmbeddingSineHW()
    )
    (bbox_embed): ModuleList(
      (0-5): 6 x MLP(
        (layers): ModuleList(
          (0-1): 2 x Linear(in_features=256, out_features=256, bias=True)
          (2): Linear(in_features=256, out_features=4, bias=True)
        )
      )
    )
    (class_embed): ModuleList(
      (0-5): 6 x Linear(in_features=256, out_features=2, bias=True)
    )
  )
  (criterion): SetCriterion(
    (matcher): HungarianMatcher()
  )
)
[10/28 01:24:43] detectron2 INFO: Rank of current process: 0. World size: 1
[10/28 01:24:44] detectron2 INFO: Environment info:
-------------------------------  -------------------------------------------------------------------------------------------
…
